handwritten-digits-classifier-with-pytorch/saved_model.pth (torch, 973751 bytes, 8 tensors)

layer1.weight f4 [256, 784]
0	0x38bad1b5	8.908232e-05
1	0x38191d11	3.6505113e-05
2	0x38c05944	9.1719005e-05
3	0x38bf7e11	9.1310714e-05
4	0x38382fbe	4.3913482e-05
5	0x38d42cd2	0.00010117296
6	0x387cb1a9	6.024694e-05
7	0x3890be51	6.901904e-05
8	0x3862bd57	5.4058935e-05
9	0x38cc237e	9.734089e-05
10	0x3890ab90	6.898411e-05
11	0x37fc3274	3.0064235e-05
12	0x38c4db66	9.3868744e-05
13	0x37fdae67	3.0241163e-05
14	0x38d2e478	0.00010056136
15	0x3854feaa	5.0781913e-05
16	0x38867e18	6.413105e-05
17	0x38a581ef	7.892015e-05
18	0x38996cad	7.315851e-05
19	0x38b4f71e	8.629098e-05
20	0x38d01485	9.922035e-05
21	0x381c56a5	3.7273992e-05
22	0x381b5789	3.7036403e-05
23	0x38ae0cf5	8.29938e-05
24	0x38dd8a6b	0.000105638836
25	0x38cb2268	9.686203e-05
26	0x3859044c	5.1740833e-05
27	0x38d9e8c5	0.00010390723
28	0x38428e86	4.638594e-05
29	0x386682b1	5.495799e-05
30	0x38926e4b	6.982366e-05
31	0x38b8511b	8.788911e-05
32	0x38ad126c	8.252714e-05
33	0x3887216f	6.443529e-05
34	0x38d72451	0.00010258763
35	0x38e5bc32	0.00010954625
36	0x381362b9	3.5139474e-05
37	0x38447374	4.6837566e-05
38	0x38db2026	0.00010448722
39	0x38e1956c	0.00010756668
40	0x38b0fc9c	8.439386e-05
41	0x3891a737	6.945285e-05
42	0x38169b28	3.5907287e-05
43	0x3884b9f4	6.328887e-05
44	0x38d2faa5	0.000100602665
45	0x3857c036	5.1439005e-05
46	0x3815ed00	3.574509e-05
47	0x38de5baa	0.00010602859
48	0x38376284	4.372235e-05
49	0x389933d7	7.3052644e-05
50	0x38ddb698	0.00010572112
51	0x389099b4	6.8950845e-05
52	0x38151d21	3.5551497e-05
53	0x389a72fc	7.36471e-05
54	0x38bd4db8	9.0266985e-05
55	0x38d98dea	0.000103738
56	0x3844a95e	4.6887777e-05
57	0x3882dae9	6.239658e-05
58	0x38645a06	5.4443277e-05
59	0x38441a8d	4.675477e-05
60	0x380d1989	3.36408e-05
61	0x388a82fa	6.604749e-05
62	0x3813733a	3.5154844e-05
63	0x3895c61a	7.141773e-05
64	0x3893526b	7.024858e-05
65	0x38440f2b	4.6744168e-05
66	0x38bd730a	9.03365e-05
67	0x3899aa5a	7.327339e-05
68	0x3877562b	5.896964e-05
69	0x3863f6ad	5.4350752e-05
70	0x38c099ce	9.183922e-05
71	0x38a36f6f	7.793202e-05
72	0x38f5fbd0	0.00011729414
73	0x385f2c80	5.3208787e-05
74	0x38a3f4f1	7.8180696e-05
75	0x3887ac09	6.469346e-05
76	0x38c80916	9.5384356e-05
77	0x389987ea	7.3209245e-05
78	0x38d42834	0.00010116436
79	0x38bd522b	9.027527e-05
80	0x38a8ee81	8.055289e-05
81	0x38cdf6a0	9.821099e-05
82	0x37f5f184	2.931874e-05
83	0x388940da	6.5447486e-05
84	0x37fbfd5e	3.0039515e-05
85	0x38ba1e21	8.874783e-05
86	0x38271173	3.9832154e-05
87	0x3834ca15	4.3103548e-05
88	0x3899864d	7.320624e-05
89	0x38d0c0ea	9.954146e-05
90	0x38cbbbc0	9.7147655e-05
91	0x3841e1d7	4.6225116e-05
92	0x384ebdf6	4.9291142e-05
93	0x3804c994	3.1658987e-05
94	0x38810715	6.1525185e-05
95	0x3885e6a3	6.384894e-05
96	0x38547cfd	5.0661143e-05
97	0x38513b10	4.988449e-05
98	0x36164a2d	2.2394918e-06
99	0x3827db8a	4.0020364e-05
100	0x3863f47b	5.4348708e-05
101	0x38520c78	5.0079514e-05
102	0x386e852e	5.6867655e-05
103	0x381f5a29	3.7992522e-05
104	0x38dd382d	0.00010548565
105	0x38603b87	5.34612e-05
106	0x389a5719	7.3595154e-05
107	0x38133598	3.5097444e-05
108	0x385d550e	5.276972e-05
109	0x3824f53c	3.932904e-05
110	0x385bf214	5.243912e-05
111	0x38a08f0b	7.656038e-05
112	0x38572792	5.1296847e-05
113	0x387f0c2e	6.080808e-05
114	0x386c4504	5.633106e-05
115	0x381d7c72	3.7547616e-05
116	0x38c5ccff	9.4318755e-05
117	0x37e8d3d5	2.7755197e-05
118	0x38963020	7.161521e-05
119	0x3896c939	7.190038e-05
120	0x38c99b43	9.6133466e-05
121	0x38afb389	8.378091e-05
122	0x38810c3b	6.1534774e-05
123	0x377d8ca0	1.5112717e-05
124	0x375ec3c3	1.32778105e-05
125	0x37a81e54	2.0041283e-05
126	0x37d3b330	2.52366e-05
127	0xb69b0315	-4.6197188e-06
128	0x38601f98	5.3435186e-05
129	0x37b6fd18	2.1813947e-05
130	0xb740928e	-1.1478214e-05
131	0x3672bc12	3.6170281e-06
132	0x3855e6ba	5.099804e-05
133	0x38ea5968	0.00011174643
134	0x38938b78	7.035484e-05
135	0x39029b8f	0.00012455716
136	0x3876a33d	5.8802998e-05
137	0x38be3b89	9.070995e-05
138	0x38c8511c	9.551851e-05
139	0x389fb6b2	7.6157405e-05
140	0x387d0d2b	6.0332164e-05
141	0x38818036	6.1750805e-05
142	0x3831db98	4.24046e-05
143	0x38caa6ba	9.663166e-05
144	0x38b3f9fa	8.581947e-05
145	0x38c23f81	9.2624694e-05
146	0x380b5957	3.3223387e-05
147	0x3852eb48	5.0287024e-05
148	0x385f4d33	5.323924e-05
149	0x383b74d3	4.4693075e-05
150	0xb7c85484	-2.3881214e-05
151	0xb58f7c72	-1.0690549e-06
152	0xb57b6cb7	-9.366299e-07
153	0x380c9be9	3.3523804e-05
154	0x3792d255	1.75025e-05
155	0x38905010	6.881368e-05
156	0x3877d268	5.9085345e-05
157	0xb8328207	-4.2559604e-05
158	0x385fc1c9	5.334782e-05
159	0x3842c12e	4.6433117e-05
160	0x38d69b8e	0.000102332895
161	0x39151602	0.00014217946
162	0x38fd13ac	0.00012067644
163	0x390548bf	0.00012710968
164	0x390277d4	0.00012442406
165	0x383923d7	4.4140816e-05
166	0x38a0ca7e	7.667112e-05
167	0x3830112a	4.1977655e-05
168	0x37eb2489	2.8031196e-05
169	0x385c3555	5.2501757e-05
170	0x37f6ef23	2.9436842e-05
171	0x38bffeff	9.1550864e-05
172	0x37fc0e5d	3.004743e-05
173	0x38453c86	4.7024827e-05
174	0x370c7685	8.372245e-06
175	0xb7a5d9b6	-1.9770912e-05
176	0x37883edb	1.6241733e-05
177	0xb712dfc0	-8.754374e-06
178	0xb886c0de	-6.425542e-05
179	0xb86490d8	-5.4494332e-05
180	0x37cb3864	2.4225745e-05
181	0x374db421	1.2260892e-05
182	0x389bc505	7.427674e-05
183	0x37d46bf6	2.5322643e-05
184	0xb78ebdd9	-1.7016124e-05
185	0xb8f20973	-0.00011541219
186	0xb8c15d1f	-9.220302e-05
187	0x3604e656	1.9803606e-06
188	0x38dec4d0	0.00010622444
189	0x38eec38e	0.00011385149
190	0x390693fe	0.00012834367
191	0x38dfaa9d	0.00010665248
192	0x39047e84	0.00012635632
193	0x389092e8	6.8938185e-05
194	0x38b60930	8.6801476e-05
195	0x38aa957b	8.1340746e-05
196	0x38034707	3.1298983e-05
197	0x38a5ff0e	7.915321e-05
198	0x388025f4	6.110585e-05
199	0x38b1a8f8	8.4714906e-05
200	0x37cc52cb	2.4357249e-05
201	0x37051e9e	7.934546e-06
202	0xb8534cab	-5.0377723e-05
203	0xb87eb388	-6.072552e-05
204	0xb8b4cd0c	-8.621262e-05
205	0xb761df56	-1.34630445e-05
206	0xb7856c57	-1.5905285e-05
207	0x38107693	3.4442706e-05
208	0x380116db	3.0777283e-05
209	0x37d49f5c	2.5346577e-05
210	0xb7920fad	-1.7411856e-05
211	0xb7a83426	-2.0051444e-05
212	0xb8ce2631	-9.829959e-05
213	0xb8e1dd95	-0.00010770109
214	0xb8ee0f68	-0.00011351594
215	0xb8bf1f56	-9.1134265e-05
216	0x384a52b7	4.8237587e-05
217	0x38ac764e	8.223635e-05
218	0x3899147b	7.299423e-05
219	0x38fc8ed9	0.00012042904
220	0x38f3ec2f	0.000116311356
221	0x38b9beb1	8.8570065e-05
222	0x3897b06b	7.2331015e-05
223	0x38b332c4	8.544841e-05
224	0x38c29797	9.278877e-05
225	0x388a66e6	6.599519e-05
226	0x38dad775	0.00010435182
227	0x38969643	7.180546e-05
228	0xb7a55f65	-1.9713954e-05
229	0xb3bc9b4a	-8.782679e-08
230	0xb7f8c954	-2.9657655e-05
231	0x37c65f50	2.3647823e-05
232	0xb7dcf27d	-2.6338961e-05
233	0x3897746a	7.221925e-05
234	0x3612308c	2.1783953e-06
235	0x3887829e	6.461631e-05
236	0xb81c06f3	-3.719977e-05
237	0x358273b2	9.719427e-07
238	0xb8aa1320	-8.109794e-05
239	0xb8502dc9	-4.9633705e-05
240	0xb8c440f6	-9.358108e-05
241	0xb8af3697	-8.3548184e-05
242	0xb89aaffb	-7.376071e-05
243	0xb87c75ee	-6.0191313e-05
244	0x37e84b19	2.7691525e-05
245	0x38b103fd	8.4407606e-05
246	0x388585f7	6.366887e-05
247	0x38aeb0e6	8.3299165e-05
248	0x3906e195	0.00012863272
249	0x38a43702	7.8303754e-05
250	0x383c0b93	4.4833472e-05
251	0x38db70b0	0.000104637234
252	0x38a47166	7.8412515e-05
253	0x3895aede	7.137445e-05
254	0x380456c5	3.1552063e-05
255	0x38bdcdad	9.0505324e-05

layer1.bias f4 [256]
0	0xb86099f3	-5.3549138e-05
1	0x3b8912b4	0.004183138
2	0xb83f7bf3	-4.5653385e-05
3	0xba116a0d	-0.0005547114
4	0xb799c642	-1.8331342e-05
5	0xba1acebf	-0.00059054414
6	0xbbe5bffb	-0.0070114112
7	0xb7c91d5a	-2.3974735e-05
8	0xb9123644	-0.0001394386
9	0xb85fe822	-5.3383534e-05
10	0x3a51bd7b	0.0008000952
11	0xb7b5314e	-2.159984e-05
12	0xb8a48e28	-7.846608e-05
13	0xb533ada1	-6.693536e-07
14	0xb801621c	-3.0847368e-05
15	0x38506537	4.9685328e-05
16	0xb931bfc5	-0.00016951475
17	0xb88a0cc1	-6.5827284e-05
18	0xba24dcea	-0.0006289022
19	0xb72012dd	-9.541135e-06
20	0xb9e763c8	-0.00044134096
21	0xb86bd844	-5.622978e-05
22	0xb5b0d23f	-1.3174212e-06
23	0xb6a45896	-4.8978936e-06
24	0xbb9220e4	-0.0044594873
25	0xb657def7	-3.216728e-06
26	0xb873715d	-5.8041293e-05
27	0xb9777bff	-0.00023601948
28	0x3ab83e06	0.001405657
29	0xbb6666bb	-0.0035156447
30	0xb75692f4	-1.2789609e-05
31	0xb8aa71f8	-8.12746e-05
32	0xb889bf19	-6.568264e-05
33	0xba1143ce	-0.0005541415
34	0x3a766aee	0.0009400089
35	0xba444817	-0.0007487549
36	0xbab5ce54	-0.0013870695
37	0x37b8de68	2.2038075e-05
38	0x3b8bed8f	0.0042702626
39	0xb79b12ff	-1.8486286e-05
40	0xbb166998	-0.0022951122
41	0xb90b0aba	-0.00013260069
42	0xbb4c9140	-0.0031214505
43	0xb7d1314e	-2.49377e-05
44	0x3ad917f7	0.0016562928
45	0xb7fee277	-3.0384615e-05
46	0xb795a838	-1.7840517e-05
47	0xb9c8a699	-0.00038271098
48	0x362c8819	2.5709217e-06
49	0x3b43ad3f	0.0029857901
50	0xb8440132	-4.6731155e-05
51	0xb9315ba2	-0.00016914171
52	0x39b1edb5	0.00033937176
53	0x3b065400	0.0020496845
54	0xb8045570	-3.1550822e-05
55	0x3802c41f	3.1177067e-05
56	0xb88b93cc	-6.655566e-05
57	0xb78e602f	-1.6972508e-05
58	0xb98a4c66	-0.00026378332
59	0x3aba266f	0.0014202128
60	0xbb95dd08	-0.004573468
61	0xb871a94d	-5.761655e-05
62	0x37e6d6a2	2.7518083e-05
63	0x3ba9ba6b	0.0051796935
64	0x3aaeca20	0.0013335384
65	0x371500c1	8.881268e-06
66	0xb8b315c8	-8.539442e-05
67	0x37c21e21	2.3140632e-05
68	0xb9773593	-0.00023575714
69	0x365aa475	3.2580258e-06
70	0xb92ffa96	-0.00016782651
71	0xb853ee94	-5.0528513e-05
72	0xbbad49f1	-0.0052883555
73	0xb9b4f20b	-0.00034512611
74	0x3a3cdba5	0.00072043604
75	0x37fd00cf	3.0160327e-05
76	0xb72b87a2	-1.0223974e-05
77	0x3bf94689	0.0076072854
78	0x3808e45b	3.26376e-05
79	0x369f4e15	4.747659e-06
80	0xba33d897	-0.00068605825
81	0x3ac704bc	0.0015183906
82	0x3bb1bd66	0.0054241894
83	0xb7c2b952	-2.3212899e-05
84	0xba33be9b	-0.00068567105
85	0xb800f382	-3.0744362e-05
86	0x3c04468d	0.008073461
87	0xbc29eed4	-0.0103718825
88	0x379a5c2b	1.840115e-05
89	0xb7d01f8a	-2.4810219e-05
90	0xb849b7b1	-4.809321e-05
91	0xb7de80a7	-2.652437e-05
92	0xbad40afc	-0.001617759
93	0x3667c0d3	3.453392e-06
94	0x3b259a53	0.0025268986
95	0xb5986cfe	-1.1356603e-06
96	0x3a8bdbc0	0.0010670349
97	0x36af0806	5.2163405e-06
98	0xbaca6825	-0.0015442414
99	0x3adbd424	0.0016771597
100	0xb85f12eb	-5.3184962e-05
101	0x3b410509	0.0029452464
102	0x36c7b1b2	5.9513486e-06
103	0x3806bb96	3.2122793e-05
104	0xb7f4072d	-2.9090408e-05
105	0x3b6c0e5b	0.0036019299
106	0xb8734647	-5.8001166e-05
107	0xb821798b	-3.8498587e-05
108	0xb7b34d96	-2.1374592e-05
109	0xb9714c38	-0.00023011945
110	0x3617f40d	2.264281e-06
111	0xb8e730b5	-0.00011024011
112	0xb83fdec2	-4.5745408e-05
113	0xbc015977	-0.007894865
114	0xb7dcda08	-2.6327572e-05
115	0xbae1d95d	-0.0017230917
116	0xbb4473f8	-0.002997635
117	0xb84cbf3a	-4.8815484e-05
118	0x3b674a14	0.0035291957
119	0x3b64d782	0.0034918492
120	0xbbd89e6d	-0.0066106827
121	0xb6901977	-4.294499e-06
122	0xb80b074f	-3.314699e-05
123	0xb736a029	-1.08853355e-05
124	0xb99c27ef	-0.00029784392
125	0xb7f8ddd5	-2.9667202e-05
126	0xb7ba1a9d	-2.218532e-05
127	0x38083c75	3.248123e-05
128	0xb83cd0c1	-4.501711e-05
129	0x3810a6d6	3.4487653e-05
130	0xbbf057d0	-0.007334687
131	0xbc07e1b9	-0.008293563
132	0xb68c11e9	-4.17441e-06
133	0x374278c7	1.1591422e-05
134	0xb7215b37	-9.617585e-06
135	0xb7dbfb47	-2.6223845e-05
136	0xb90d2399	-0.00013460069
137	0xbb135b85	-0.002248497
138	0x37d2edaf	2.514463e-05
139	0xb9a39085	-0.00031197458
140	0xb6641737	-3.398816e-06
141	0x38afc750	8.381775e-05
142	0xb848511a	-4.7759248e-05
143	0x3b2e6053	0.0026607707
144	0x3aff3798	0.0019471524
145	0xba441b85	-0.00074809074
146	0xb98d22b3	-0.0002691947
147	0xb80e72bd	-3.3962297e-05
148	0xb6c67148	-5.9140475e-06
149	0x370b716d	8.311455e-06
150	0x3c4e4adc	0.01259109
151	0xb9b5b76b	-0.00034659667
152	0xb8834b5c	-6.2606035e-05
153	0x37e9300a	2.7798134e-05
154	0xb9298f9c	-0.00016170595
155	0xb706c474	-8.032763e-06
156	0xb7a7577d	-1.9948691e-05
157	0xbb91b1dd	-0.004446252
158	0xbba34991	-0.004983135
159	0xb740565d	-1.14642e-05
160	0xb8929d31	-6.991102e-05
161	0x375316c4	1.2581881e-05
162	0x3a819cf9	0.00098887
163	0x3bc64847	0.0060510966
164	0xb910c0a8	-0.0001380468
165	0xbb3cae9c	-0.0028790599
166	0x396e4178	0.00022721838
167	0x37d0f163	2.4907937e-05
168	0xba8516e1	-0.0010153913
169	0xba2c5705	-0.0006574246
170	0x37a260b4	1.9356936e-05
171	0x393ce01d	0.00018012566
172	0xb609b0fc	-2.051761e-06
173	0xb713f49c	-8.818835e-06
174	0xb9742b44	-0.00023285771
175	0xb9166242	-0.00014341719
176	0xb745cf7c	-1.1790424e-05
177	0x391471f2	0.00014156828
178	0x380fc2a0	3.4275115e-05
179	0x3ae82a69	0.0017712835
180	0xbb775a6f	-0.0037743112
181	0x3782de5b	1.560075e-05
182	0xbb6a0fe9	-0.003571505
183	0xbb42c20e	-0.0029717716
184	0xb9280943	-0.00016025179
185	0xb9ec48d6	-0.00045067695
186	0x3b443acf	0.002994228
187	0xbc00d02c	-0.007862132
188	0x39a0f646	0.00030701066
189	0xb970984e	-0.00022944922
190	0x358cce06	1.0490774e-06
191	0xbb834ac3	-0.004006715
192	0xbab42b99	-0.0013745903
193	0xbb269de6	-0.0025423705
194	0xbb89741a	-0.0041947486
195	0xb8691b1a	-5.557677e-05
196	0xb844b2db	-4.6896614e-05
197	0xba1ee254	-0.0006060947
198	0x391c0c14	0.00014881819
199	0xb798b560	-1.8204271e-05
200	0xba4f1a84	-0.00079003745
201	0xbb0588bf	-0.0020375696
202	0xb8a78c45	-7.989308e-05
203	0xbae943fb	-0.0017796749
204	0x3601e790	1.9357285e-06
205	0xbb3872e5	-0.0028144654
206	0xbb46d275	-0.0030337845
207	0x380e1a92	3.3880184e-05
208	0xb8572c76	-5.1301402e-05
209	0x3b99dfc1	0.004695863
210	0xb6a9913c	-5.0535e-06
211	0xb6ad8567	-5.171332e-06
212	0xba1a3f08	-0.0005884026
213	0xb7c18147	-2.3067592e-05
214	0xb8ff6087	-0.00012177327
215	0xb7467b2a	-1.1830396e-05
216	0xbbbc9bfb	-0.005755899
217	0xb9a4c474	-0.00031426887
218	0xb92a2a69	-0.00016228262
219	0xb61fa385	-2.3788027e-06
220	0x3b0a0e48	0.0021065641
221	0xb7cade80	-2.4183886e-05
222	0xb788a622	-1.6289825e-05
223	0xb932b9c5	-0.00017044607
224	0xb82c099a	-4.1016938e-05
225	0x391245bd	0.00013949625
226	0xb8172eaf	-3.6044683e-05
227	0xb849fff8	-4.8160524e-05
228	0xb74355a5	-1.1642846e-05
229	0x3a12de9f	0.0005602631
230	0xb8a96f23	-8.079249e-05
231	0xb8301c4f	-4.1988034e-05
232	0xb95b1d19	-0.00020896307
233	0xb855bb73	-5.0957733e-05
234	0xb7375f07	-1.0929775e-05
235	0xb87e5eb9	-6.0646536e-05
236	0xbb6c65b3	-0.003607136
237	0x36c25796	5.791847e-06
238	0xbba61164	-0.005067991
239	0x37b432d7	2.1481346e-05
240	0xb7e6794d	-2.7474622e-05
241	0xb82df35c	-4.147306e-05
242	0x3756affb	1.2796368e-05
243	0x3bc3b360	0.005972311
244	0xb7678732	-1.3800151e-05
245	0xb9de7d71	-0.000424366
246	0xb68a8c29	-4.1290373e-06
247	0xb67bd3f7	-3.7525294e-06
248	0xb9dab4ca	-0.00041714899
249	0xb89d9250	-7.513596e-05
250	0xb81cc6d3	-3.7378468e-05
251	0x3b92a1cc	0.004474854
252	0xbb99ddb8	-0.0046956204
253	0xb804b6f2	-3.1641634e-05
254	0xbb0d966b	-0.0021604549
255	0x3ae31fd9	0.0017328217

layer2.weight f4 [128, 256]
0	0x37f3640a	2.9014442e-05
1	0xb8d1dbdd	-0.00010006849
2	0xb88c0041	-6.6757675e-05
3	0xb83b546c	-4.46629e-05
4	0xb875fed7	-5.864989e-05
5	0xb8791ba6	-5.9391976e-05
6	0xb80f8b1e	-3.422342e-05
7	0xb657a9ac	-3.2136259e-06
8	0x386be08a	5.6237484e-05
9	0xb802cf20	-3.1187315e-05
10	0xb689011b	-4.083047e-06
11	0xb8941c72	-7.062488e-05
12	0xb8328d2c	-4.2569984e-05
13	0xb73634db	-1.0860352e-05
14	0x387f49ff	6.0865652e-05
15	0x36c096d8	5.7396064e-06
16	0xb86340f1	-5.41815e-05
17	0xb87c7294	-6.018819e-05
18	0x368cf956	4.2013517e-06
19	0xb7d02e85	-2.4817195e-05
20	0x36cc3f1a	6.0870198e-06
21	0x3710dbea	8.634272e-06
22	0x38830b9c	6.248729e-05
23	0xb85de781	-5.290611e-05
24	0x38618e64	5.3776792e-05
25	0xb72ffd08	-1.0489726e-05
26	0xb8181dcc	-3.6267375e-05
27	0x3817de09	3.620799e-05
28	0xb89acc8b	-7.381391e-05
29	0x39d6dce3	0.00040981834
30	0xb71953a7	-9.1389875e-06
31	0xb65cee2a	-3.2921184e-06
32	0xb80bd98a	-3.334278e-05
33	0xb8109a6d	-3.4476096e-05
34	0xb68d35f3	-4.208408e-06
35	0x38237ebe	3.8980266e-05
36	0x38af4481	8.35741e-05
37	0x382987a1	4.0419054e-05
38	0xb8558bd9	-5.09134e-05
39	0xb887a767	-6.468483e-05
40	0x35b1d54a	1.3249603e-06
41	0xb89033f5	-6.876133e-05
42	0x384c81ae	4.8758164e-05
43	0x37bf3d9f	2.2797669e-05
44	0xb8b8fad6	-8.8205255e-05
45	0xb7ab97c3	-2.0455458e-05
46	0xb82355fb	-3.8942304e-05
47	0xb85fbea1	-5.334488e-05
48	0xb8615e3e	-5.373195e-05
49	0xb7f0574f	-2.8650886e-05
50	0x381e5db6	3.775741e-05
51	0xb82c3110	-4.105369e-05
52	0xb8857534	-6.363765e-05
53	0x3915920b	0.00014264153
54	0xb820608b	-3.8236885e-05
55	0xb79a9776	-1.842876e-05
56	0xb88dbd70	-6.7586894e-05
57	0xb772fd8c	-1.44833575e-05
58	0x38834707	6.259797e-05
59	0x37b4f568	2.1571948e-05
60	0x39ab349d	0.00032654862
61	0x37a3edd2	1.9541858e-05
62	0xb88987f7	-6.5579945e-05
63	0x37c3ebb8	2.3355577e-05
64	0x37380fce	1.0970934e-05
65	0x3774edb7	1.4598881e-05
66	0xb847674b	-4.7541496e-05
67	0x3862c646	5.4067255e-05
68	0xb8321d4e	-4.24658e-05
69	0xb86d7c2a	-5.662084e-05
70	0x36ac180b	5.1287984e-06
71	0xb80427fa	-3.1508484e-05
72	0xb7eb889a	-2.8077793e-05
73	0xb78f7b14	-1.7104241e-05
74	0x37efd9d9	2.8592463e-05
75	0x3861692c	5.374213e-05
76	0x38951d5b	7.1103415e-05
77	0xb931a630	-0.00016941945
78	0xb79d1d7a	-1.8729585e-05
79	0x383a445b	4.4409517e-05
80	0xb834d3f2	-4.3112734e-05
81	0xb8ead0a3	-0.00011196851
82	0xb7fda2e9	-3.0235811e-05
83	0x3890c3c9	6.902923e-05
84	0x37dcaa0f	2.6305233e-05
85	0xb6c04927	-5.730562e-06
86	0xb81f380d	-3.7960755e-05
87	0x39d305e0	0.00040249433
88	0x37da27b9	2.6006122e-05
89	0x382cf4c0	4.1235937e-05
90	0xb9c5042c	-0.00037577876
91	0xb7ba9721	-2.2243303e-05
92	0xb80c1590	-3.3398683e-05
93	0xb80b1b05	-3.3165346e-05
94	0xb93ce111	-0.00018012921
95	0xb782952e	-1.5566675e-05
96	0x36de25d0	6.6205175e-06
97	0xb7b07927	-2.1037251e-05
98	0x39643182	0.00021762218
99	0xb6b5ed59	-5.4218513e-06
100	0x3839bfd4	4.428609e-05
101	0xb7a0c390	-1.9164552e-05
102	0x36b04e33	5.2543123e-06
103	0xb78547d9	-1.5888292e-05
104	0xb88a9db7	-6.6097295e-05
105	0xb79e983f	-1.8905963e-05
106	0x38338a4b	4.280572e-05
107	0xb8640b40	-5.4369913e-05
108	0x37190358	9.120289e-06
109	0xb908422c	-0.00012994622
110	0x3845c0e9	4.714812e-05
111	0x36b8650b	5.4953903e-06
112	0xb8812d35	-6.15962e-05
113	0x39a0d037	0.0003067271
114	0xb809b692	-3.2833377e-05
115	0xb7fe1088	-3.0286858e-05
116	0x39f11dc5	0.00045989282
117	0xb82f7af5	-4.1837764e-05
118	0x388fe0c7	6.8606394e-05
119	0xb91ce26d	-0.0001496167
120	0xb67cd2df	-3.767367e-06
121	0x368f6da5	4.2744964e-06
122	0x3855fa97	5.1016537e-05
123	0xb84c1fab	-4.8666883e-05
124	0xb855d0ae	-5.0977505e-05
125	0xb7a8d9f1	-2.0128648e-05
126	0xb84eeb03	-4.93331e-05
127	0x37f8a05c	2.9638577e-05
128	0xb873a14a	-5.8085927e-05
129	0x3785cbbc	1.5949707e-05
130	0x387c3751	6.0133e-05
131	0x3881559b	6.1671446e-05
132	0x3692b878	4.372614e-06
133	0xb7d55c7e	-2.5434649e-05
134	0x3823da60	3.9065606e-05
135	0xb85de67b	-5.2905158e-05
136	0xb876b746	-5.8821657e-05
137	0xb8aa0546	-8.107214e-05
138	0x38770044	5.8889636e-05
139	0xb8172ade	-3.604113e-05
140	0xb7bb1a8a	-2.2304495e-05
141	0x373dc503	1.1311148e-05
142	0x3802a90c	3.1151852e-05
143	0x39b57f57	0.00034617886
144	0xb81edc10	-3.7875085e-05
145	0xb818df49	-3.6447575e-05
146	0xb889a58b	-6.563504e-05
147	0x382e0587	4.148998e-05
148	0x38209003	3.8281094e-05
149	0xb7c2e181	-2.323161e-05
150	0x38bdde08	9.053579e-05
151	0x39a62cc7	0.0003169535
152	0xb6efd98b	-7.1480804e-06
153	0x379ff39e	1.906772e-05
154	0xb91ebe03	-0.00015138839
155	0x37df601f	2.6628431e-05
156	0xb85626b3	-5.1057617e-05
157	0x39e950b3	0.0004450135
158	0xb902e66e	-0.00012483608
159	0xb76a01a5	-1.394787e-05
160	0xb810fb24	-3.456617e-05
161	0x38085013	3.24995e-05
162	0x3800e860	3.0733994e-05
163	0xb7ecdaac	-2.823522e-05
164	0xb8819aba	-6.1800194e-05
165	0x3a18ef9b	0.0005834044
166	0x380c0ed5	3.3392414e-05
167	0xb789f245	-1.6444488e-05
168	0x38e558bd	0.000109361
169	0x381eb0a3	3.783464e-05
170	0x386d4f09	5.657881e-05
171	0xb55bff1e	-8.19551e-07
172	0x368dcdfd	4.2261076e-06
173	0xb8498bf6	-4.8052483e-05
174	0x388380bd	6.270546e-05
175	0x38342c3c	4.295654e-05
176	0xb8497b0f	-4.803674e-05
177	0x388e558b	6.787021e-05
178	0x389489d4	7.0828624e-05
179	0x3977be45	0.00023626637
180	0xb7d16c82	-2.496527e-05
181	0xb88d1394	-6.727051e-05
182	0x3887903b	6.464167e-05
183	0x37a83b12	2.0054667e-05
184	0xb7f8f4aa	-2.9677834e-05
185	0xb8713c6e	-5.7515157e-05
186	0xb82c5788	-4.1089515e-05
187	0x37cf115a	2.4684403e-05
188	0x38aac7d5	8.143453e-05
189	0xb8e1e4e1	-0.00010771468
190	0xb840259a	-4.5811386e-05
191	0x38bc1d9b	8.970053e-05
192	0xb8072252	-3.221847e-05
193	0xb778fee2	-1.4841296e-05
194	0xb8cd08fe	-9.776837e-05
195	0x37c59946	2.3555604e-05
196	0x39fb886a	0.00047976087
197	0xb72a8034	-1.0162639e-05
198	0xb8642b2d	-5.4399647e-05
199	0x365c31b3	3.2811483e-06
200	0x38784e0d	5.9200498e-05
201	0x38a6b810	7.949781e-05
202	0x38417f09	4.6133096e-05
203	0xb6049437	-1.9755805e-06
204	0xb8573d75	-5.131723e-05
205	0x368e61bb	4.243307e-06
206	0xb94b9078	-0.00019413407
207	0xb835dbe3	-4.335855e-05
208	0xb7e7262a	-2.7555117e-05
209	0xb92f5c65	-0.0001672372
210	0xb88d898a	-6.7490226e-05
211	0x37a47eac	1.960931e-05
212	0x37973855	1.8026834e-05
213	0x37be5b7d	2.2692368e-05
214	0xb7e73ed0	-2.7566595e-05
215	0xb82ab028	-4.0695217e-05
216	0xb7c1eda0	-2.3118046e-05
217	0xb7eb0dff	-2.80207e-05
218	0xb76955a2	-1.390782e-05
219	0x38889215	6.512195e-05
220	0xb742eb45	-1.1618079e-05
221	0x3880692a	6.123104e-05
222	0x388674cc	6.411373e-05
223	0xb85ea54f	-5.308288e-05
224	0xb770a09c	-1.43425095e-05
225	0x37b60b4f	2.1701357e-05
226	0x37fa149a	2.9811916e-05
227	0xb7f8eabd	-2.9673212e-05
228	0xb8055c1a	-3.1795447e-05
229	0x38d7e550	0.00010294712
230	0x37809394	1.532751e-05
231	0xb700e2f3	-7.682235e-06
232	0x37e56747	2.734702e-05
233	0x385a20a2	5.2005642e-05
234	0xb8824c05	-6.213043e-05
235	0xb646347b	-2.9534847e-06
236	0xb83ab754	-4.4516593e-05
237	0x37952e0c	1.7783626e-05
238	0xb8a3be75	-7.807921e-05
239	0xb87b103b	-5.985818e-05
240	0x3810b257	3.4498367e-05
241	0x381b0cdc	3.6966856e-05
242	0xb82b37b0	-4.082144e-05
243	0xb99c7c75	-0.00029847366
244	0xb83a38da	-4.4398803e-05
245	0x378cc2e6	1.6780057e-05
246	0xb70d055c	-8.405503e-06
247	0xb83d555d	-4.5140612e-05
248	0xb88bf82e	-6.6742636e-05
249	0x37dcf141	2.6338386e-05
250	0x37daa73c	2.60655e-05
251	0x37d4f633	2.5387015e-05
252	0x37ddeb1b	2.6454733e-05
253	0xb733148d	-1.0674016e-05
254	0xb82bc017	-4.0948475e-05
255	0xb92583e3	-0.00015784758

layer2.bias f4 [128]
0	0x37f9a1f7	2.9758534e-05
1	0x39e8b3a7	0.0004438434
2	0x3b9c7d44	0.004775675
3	0x3d0b087b	0.033943634
4	0xb64f79c6	-3.0916285e-06
5	0xb805d80d	-3.1910884e-05
6	0x3a6dc09f	0.00090695353
7	0x3b054988	0.0020338017
8	0xbbebdcdb	-0.007197959
9	0x3d022f26	0.031783246
10	0xbaa89095	-0.0012860472
11	0x3d484974	0.048898175
12	0x3d1b385c	0.037895545
13	0x3d0a4f33	0.033766937
14	0x3b048e77	0.0020226517
15	0x39ccea4f	0.00039084486
16	0x3b814f90	0.003946252
17	0xbbb84e96	-0.0056246025
18	0x3785fd42	1.5972768e-05
19	0xbc920eb2	-0.017829273
20	0xbba5e409	-0.0050625843
21	0x3bb93837	0.0056524533
22	0x3c30e15f	0.01079592
23	0x3ca592bf	0.020211576
24	0x39adc825	0.0003314625
25	0xba7b99a7	-0.0009597786
26	0x3d1523c9	0.03641108
27	0x3d4449f1	0.04792208
28	0x3ca1cc85	0.019750843
29	0x3a737b37	0.0009288075
30	0xbc894dd8	-0.016760752
31	0x3c146b73	0.009058821
32	0xbbf7e4cd	-0.007565117
33	0xb720f3d9	-9.593518e-06
34	0xb9f5ea32	-0.0004690453
35	0x3a42fb43	0.00074379536
36	0x39cc5214	0.00038971065
37	0x3c80fa22	0.015744273
38	0x3be09147	0.006853256
39	0x3c5b5086	0.0133858975
40	0x3cbcb00e	0.023033168
41	0x3be6b74d	0.007040894
42	0x3ae3e09e	0.0017385667
43	0xbbb4e5eb	-0.0055205724
44	0x3b35cd29	0.0027740693
45	0xb8851c31	-6.347185e-05
46	0x3b9117e5	0.0044278973
47	0x3b0c21bc	0.0021382412
48	0x3d0c38dc	0.034233913
49	0xb9d4a0f7	-0.0004055572
50	0x377fba01	1.5242492e-05
51	0x3c90c066	0.017669868
52	0x3c31ca51	0.010851459
53	0x38bc0077	8.964625e-05
54	0x3b9c3d6c	0.0047680642
55	0xbc0a6c0b	-0.008448611
56	0x3a9ebc6d	0.0012110599
57	0xb7a6dd44	-1.9891777e-05
58	0x3c864edf	0.01639503
59	0x3b4e906f	0.0031519195
60	0xba865bbd	-0.0010250729
61	0x3a9efb69	0.001212937
62	0x3c50f866	0.012754535
63	0x3d00e7f6	0.031471215
64	0x3a208364	0.00061230944
65	0x3ce4e359	0.027940439
66	0x3c6532b9	0.013989144
67	0x3a89d030	0.0010514315
68	0xbbc0fdf0	-0.0058896467
69	0x3b434cfa	0.002980052
70	0x3c1d4590	0.0095991045
71	0x3baff22a	0.0053694444
72	0x3d175aab	0.036951702
73	0x3ca40e36	0.020026308
74	0xbb885c05	-0.00416136
75	0xbbc7df12	-0.00609959
76	0xbbeada72	-0.007167154
77	0x39b4e3b2	0.00034501922
78	0x36a3f387	4.886129e-06
79	0xbaad8fa5	-0.0013241662
80	0x3bbe3435	0.0058045634
81	0xbcccbf69	-0.024993615
82	0x3c738039	0.014862114
83	0xb94a63f0	-0.00019301451
84	0x3acbb9e9	0.0015543076
85	0xb7cce36f	-2.4424602e-05
86	0xbc9b49ee	-0.01895615
87	0x3cd6ef2c	0.026237093
88	0x37ef5b03	2.85334e-05
89	0x3c8330f2	0.01601455
90	0x388db439	6.756973e-05
91	0x3d10bfeb	0.035339277
92	0x3af2cf3b	0.0018524894
93	0x3c227baf	0.009917184
94	0x39c98907	0.000384398
95	0x3c82bec2	0.015960101
96	0x3c5d0ccf	0.013491823
97	0x3bfd7374	0.0077347104
98	0xba02872d	-0.0004979249
99	0x3c822af1	0.015889617
100	0x3d142136	0.036164485
101	0x3a8db797	0.001081216
102	0x3c953798	0.018214986
103	0x3b7a1090	0.0038156845
104	0x38a46704	7.8393175e-05
105	0x3aefdf8c	0.0018300875
106	0x3caca074	0.021072604
107	0x3b8c075d	0.0042733387
108	0xba030ef6	-0.0004999483
109	0xbbba1050	-0.005678214
110	0xb7fd18a2	-3.017142e-05
111	0xbc49125c	-0.012272444
112	0xb95d9530	-0.00021131779
113	0xbb228f2a	-0.002480457
114	0x3b217f2f	0.0024642458
115	0xbade24cf	-0.0016948226
116	0xb8499416	-4.806005e-05
117	0xb7ab5638	-2.0424937e-05
118	0xb6d696d6	-6.3952566e-06
119	0x3d6b90df	0.057511207
120	0x3aa4a5cc	0.0012561618
121	0x37c2be3c	2.3215187e-05
122	0x3c2a66dd	0.010400501
123	0x3cde0651	0.027102621
124	0x3c695892	0.014242308
125	0xb7d1776e	-2.4970355e-05
126	0x3ab12a3c	0.0013516615
127	0xb9a8f3ce	-0.00032225106

layer3.weight f4 [64, 128]
0	0x3761c6a3	1.3457294e-05
1	0xbb033b76	-0.0020024455
2	0xbb572e8f	-0.0032834148
3	0x3bd331d2	0.006445148
4	0xb7a7de66	-2.0011514e-05
5	0x38a90ee8	8.0613245e-05
6	0xbb0a4069	-0.002109552
7	0xb9184a38	-0.00014523498
8	0x3cbabfd8	0.022796556
9	0xbd30c956	-0.04316076
10	0xbbc15bc9	-0.005900834
11	0x3c298983	0.010347727
12	0x3c997b46	0.01873554
13	0x3d2890ba	0.041153647
14	0x3ae43ea4	0.0017413688
15	0xb7f179e7	-2.8786204e-05
16	0xbc614435	-0.013749172
17	0x3c60d73a	0.013723189
18	0x38c151a9	9.2181675e-05
19	0x3ce8deaf	0.028426496
20	0x3b99e84c	0.0046968814
21	0xbbaf6c9b	-0.005353523
22	0xbb3f0e29	-0.0029152727
23	0xbb2e6951	-0.0026613066
24	0xb8cbd7ac	-9.719966e-05
25	0x3cff9304	0.031198032
26	0xbb53c9d0	-0.0032316335
27	0x3c397455	0.01131924
28	0xbbf6b9f6	-0.0075294925
29	0x3a7b63c9	0.0009589759
30	0x3c759d85	0.014991169
31	0x3d152212	0.036409445
32	0xbd38d91e	-0.045128934
33	0xb86f5dce	-5.7069403e-05
34	0x3acd333c	0.0015655528
35	0xbb667749	-0.0035166314
36	0xbaad0784	-0.0013201092
37	0x3cdc6535	0.026903728
38	0xba68ee4e	-0.0008885608
39	0x3c4450be	0.011982141
40	0xbb9cd393	-0.004785964
41	0xbc94e3a6	-0.018174957
42	0x399f2f97	0.000303623
43	0x3db94ded	0.09048066
44	0xbb3d8bb3	-0.0028922379
45	0x3cb94bec	0.02261921
46	0xbc0c08e9	-0.008547046
47	0x3d581054	0.052749947
48	0x3c17622c	0.009239715
49	0x3ce1d29b	0.027566245
50	0x3821f79d	3.8616e-05
51	0xbb83947e	-0.0040155044
52	0x3b6e44e2	0.0036356975
53	0x3a3bfa38	0.00071707694
54	0xbcd1e5c0	-0.025622249
55	0xbbc96670	-0.0061462447
56	0xb8ab97a7	-8.182163e-05
57	0xb89724a5	-7.207067e-05
58	0x3a555b0b	0.00081388716
59	0xbb8e85e2	-0.004349456
60	0xbb96efd4	-0.0046062265
61	0xbaf6a183	-0.0018816445
62	0x3c8f59e5	0.01749892
63	0x3d50662e	0.050878696
64	0xbaa9aff8	-0.001294612
65	0x3c4af43c	0.012387332
66	0xbb95ce73	-0.00457173
67	0x3a6e48f0	0.0009089848
68	0x3c161ed6	0.009162625
69	0x3c0855a9	0.008321204
70	0xbb5a94f6	-0.0033352948
71	0x3bdc6c1a	0.006726754
72	0x3d2a431d	0.04156791
73	0xbae1fe3a	-0.0017241903
74	0xbc98d1ec	-0.018654786
75	0x3ca16849	0.019703047
76	0x3d0a00fc	0.033692345
77	0x3c70dd36	0.014701178
78	0xb8c8e794	-9.579878e-05
79	0x3cb004e1	0.021486701
80	0xbc412e15	-0.011790772
81	0xbd74b435	-0.05974217
82	0xbcfb049b	-0.030641844
83	0x3d52b3c3	0.051440965
84	0x3d8e8ad6	0.069600746
85	0xb8c94ca3	-9.5987016e-05
86	0xbcdd8053	-0.027038729
87	0xbc487819	-0.012235665
88	0x38ad65ef	8.2682694e-05
89	0xbc62c91c	-0.0138418935
90	0x3c1e17fe	0.009649275
91	0x3dbac1fc	0.09119031
92	0x3d71343f	0.058887716
93	0x3c2767ab	0.010217587
94	0xb9fa3f9b	-0.00047731106
95	0xbcf5b039	-0.029991256
96	0x3bf011a4	0.0073263217
97	0x3c3bc826	0.011461293
98	0x3b163c3f	0.0022924093
99	0xbc2bee0e	-0.010493768
100	0x3d31d85f	0.04341924
101	0x3ae117dc	0.0017173248
102	0xbc1cc5aa	-0.009568611
103	0xbb89cf6e	-0.0042056357
104	0xb841187b	-4.6037585e-05
105	0xbb891250	-0.004183091
106	0xbc54e9d3	-0.012995201
107	0x3ad81dbc	0.0016488354
108	0xba547ad2	-0.000810546
109	0x3c80778d	0.015682006
110	0xb6b04e2e	-5.25431e-06
111	0x3c7de2ff	0.015496015
112	0x3a149de8	0.0005669282
113	0xbd3b0556	-0.045659386
114	0x39540611	0.00020220155
115	0x3ddc2d01	0.10750771
116	0xb8aeb057	-8.3298124e-05
117	0x37cdf32b	2.4551138e-05
118	0x38584270	5.1560288e-05
119	0x3c2aae15	0.010417481
120	0xbb98733b	-0.0046524084
121	0xb7cbccfd	-2.429494e-05
122	0x3b9eb6f3	0.0048435866
123	0x3ca326c0	0.019915938
124	0x3d1b90d5	0.03797992
125	0x3860b7c9	5.3576925e-05
126	0x3af6a408	0.0018817196
127	0xb93d7fd6	-0.00018072067
128	0xb8516f59	-4.9933184e-05
129	0xbb071950	-0.0020614453
130	0x3ab19cfe	0.0013550816
131	0xbd3fe5e9	-0.04685012
132	0xb8b5747d	-8.65245e-05
133	0x38c463af	9.364576e-05
134	0xbb908f74	-0.004411632
135	0xbcb5e54e	-0.022204068
136	0xbb7f241d	-0.0038931437
137	0xbd561601	-0.05226708
138	0x3d47bc0f	0.04876333
139	0xbd11bb06	-0.03557875
140	0xbcbaaee5	-0.022788474
141	0x3d7efbaa	0.062251724
142	0x3bb40a16	0.0054943664
143	0xba7b1626	-0.00095781905
144	0xbc54a2a3	-0.012978229
145	0x3d994fbd	0.07485912
146	0xb8e98197	-0.00011134444
147	0x3dfe6145	0.124208964
148	0x3d1f0227	0.038820412
149	0xbba5ffe0	-0.005065903
150	0x3ad99f48	0.0016603256
151	0x3d3b7510	0.045765936
152	0x3b2697c9	0.002542006
153	0x3d730aa1	0.05933631
154	0xbc7f4556	-0.015580496
155	0xbd0accad	-0.0338866
156	0x3c2afacd	0.010435772
157	0x3c4ec259	0.012619578
158	0x3dd7d364	0.105383664
159	0x3c2c1313	0.0105025945
160	0xbcbc0aea	-0.022954423
161	0x38b74014	8.7380555e-05
162	0x3a87061e	0.0010301506
163	0xbbb798fa	-0.005602953
164	0xbb089054	-0.002083798
165	0x3cc0ff72	0.023559306
166	0xbb9c3515	-0.00476707
167	0xbc8f4833	-0.017490482
168	0xbc8e7d06	-0.0173936
169	0xbce9746e	-0.0284979
170	0xba720c24	-0.00092333765
171	0x3e315cb5	0.17320521
172	0xbc095d18	-0.008384012
173	0x3d874a05	0.06605915
174	0xbb9796bb	-0.004626123
175	0x3d802d63	0.06258657
176	0xbcda57c8	-0.026653185
177	0x3dad12eb	0.08450874
178	0xb70a99cb	-8.261249e-06
179	0xbd0b9c18	-0.03408441
180	0xbd8a82f6	-0.0676326
181	0xba904548	-0.0011006976
182	0xbcd4c5f6	-0.025973301
183	0xbc602a8b	-0.013682018
184	0xbce7b154	-0.028282799
185	0x390075a7	0.0001225086
186	0xbcfcfabf	-0.030881284
187	0xbd21b7e5	-0.039482016
188	0xbaeb3d3f	-0.001794733
189	0xbcb74841	-0.02237332
190	0xbd639e79	-0.055571053
191	0xbc06bac0	-0.008223236
192	0xbc89ed47	-0.016836775
193	0x394de9c8	0.00019637414
194	0xbd0f6ec6	-0.03501775
195	0x3c084bd8	0.008318864
196	0x3d0f8aa6	0.035044335
197	0x3d55e4c0	0.052220106
198	0xbc5031f9	-0.012707227
199	0x3ae812f3	0.0017705843
200	0x3d3a6396	0.04550513
201	0xbd027379	-0.031848405
202	0xbc371ea5	-0.01117674
203	0x3c80917b	0.01569437
204	0x3bd9e43a	0.006649521
205	0x3d704d41	0.058667425
206	0x36de099f	6.6172356e-06
207	0xbc42bf94	-0.011886496
208	0x3d5af786	0.053458713
209	0xbcc45841	-0.023967864
210	0xbd7ea474	-0.062168553
211	0x3db61925	0.08891515
212	0x3e1a6e24	0.15081078
213	0xb9105dac	-0.00013767806
214	0xbc56ac90	-0.013102666
215	0xbd1ae019	-0.037811372
216	0x3a4ec9b4	0.00078883325
217	0xbca9cd0e	-0.02072766
218	0x3d0fddf8	0.035123795
219	0x3d51ba58	0.051203102
220	0x3d66debf	0.05636477
221	0x3db88049	0.090088435
222	0xbb86f9af	-0.00411912
223	0xbd0c7187	-0.034287956
224	0xbc02fcda	-0.007994855
225	0x3c2b2bc0	0.0104474425
226	0x3b81bd9c	0.003959371
227	0xbcbac415	-0.022798577
228	0xbbe01fcb	-0.0068397275
229	0x3994d7f0	0.00028389646
230	0xbcb553ee	-0.022134747
231	0x3c6989de	0.0142540615
232	0xb976490d	-0.00023487602
233	0xbc30025c	-0.01074275
234	0xbcbfc219	-0.023407983
235	0xbda5a731	-0.0808853
236	0x3c2e5aeb	0.010641794
237	0x3dcaa942	0.098955646
238	0xb88eff77	-6.818672e-05
239	0x3db23354	0.08701196
240	0x3b0dd5e4	0.0021642381
241	0xbc9bfe1e	-0.019042071
242	0x3b420d2b	0.00296099
243	0x3e31a644	0.17348582
244	0x38b1a45f	8.470634e-05
245	0x388c2670	6.68288e-05
246	0x346ca044	2.2037517e-07
247	0xbd388354	-0.04504712
248	0xbc066da3	-0.00820485
249	0xb87cb015	-6.024547e-05
250	0x3dbe88fc	0.093034714
251	0xbbe9af63	-0.0071315034
252	0xbd12ba31	-0.035822097
253	0x382b8363	4.089194e-05
254	0xbc2ee6b0	-0.010675117
255	0x3b8fd749	0.0043896777

layer3.bias f4 [64]
0	0x3c8ed11f	0.017433701
1	0xbbacc22b	-0.00527217
2	0x37e9fdf6	2.7894024e-05
3	0x3d1119c4	0.035424963
4	0xbb5603b9	-0.0032656027
5	0x3b3baf59	0.002863845
6	0xbbc45e4a	-0.0059926854
7	0x3be77f05	0.0070647025
8	0x3bb15629	0.0054118824
9	0x38fce88e	0.00012059613
10	0xba0d2f38	-0.0005385759
11	0x3ad43293	0.0016189389
12	0xb873a206	-5.808661e-05
13	0x3bb163d3	0.0054135113
14	0x3c97e7a6	0.018543076
15	0x3b55dde8	0.0032633487
16	0x3be031c4	0.00684187
17	0x3c062098	0.008186482
18	0x3bc6a6f4	0.006062383
19	0x3c07b5f8	0.008283131
20	0x3c20e3ab	0.009819905
21	0x3c7c7c71	0.0154105285
22	0x3c13772c	0.009000581
23	0x3bca591c	0.0061751734
24	0x3d5b1980	0.053491116
25	0x3a355d16	0.0006918473
26	0x3d79d3a1	0.06099284
27	0xb8fca8dc	-0.00012047749
28	0x3ba972d5	0.0051711597
29	0xbb32119c	-0.002717114
30	0x3bc7a298	0.0060923807
31	0xb86efcb6	-5.6978977e-05
32	0x3bbdd779	0.0057935086
33	0x3bf6f37b	0.0075363494
34	0x3da8e302	0.08246423
35	0xb994fa7a	-0.0002841538
36	0x3d64129d	0.055681814
37	0xbb3d96b0	-0.0028928928
38	0x3c4de6d3	0.01256724
39	0x3bd84eb5	0.0066011795
40	0x3be1fb9d	0.0068964497
41	0x3c48bad3	0.012251574
42	0x3c938441	0.0180074
43	0xb88ebc32	-6.806142e-05
44	0x3849ed3f	4.8143087e-05
45	0x3c7b547f	0.01533997
46	0x3b43660e	0.0029815468
47	0x3c7545ae	0.014970226
48	0x3d0bce83	0.03413249
49	0x3a2d8501	0.00066192454
50	0x3c947fa9	0.01812728
51	0x3d2001af	0.039064106
52	0xb82f49ac	-4.1791864e-05
53	0x3d2e5e45	0.04257037
54	0x3b902c56	0.0043998165
55	0x3a26076d	0.0006333504
56	0xb847f4f1	-4.7673417e-05
57	0x3d524c5d	0.051342357
58	0x3cd48b9c	0.025945477
59	0x3c34ba86	0.011030799
60	0x3b709e47	0.0036715434
61	0x3d6eae8f	0.05827194
62	0xb9ea4528	-0.00044683483
63	0x3c041d5e	0.008063642

layer4.weight f4 [10, 64]
0	0xbd87b316	-0.06625955
1	0xbdba7e84	-0.09106162
2	0x3aa486ed	0.0012552418
3	0xbd4b4c17	-0.04963311
4	0xbdbaef32	-0.09127654
5	0xbdcbec5a	-0.0995719
6	0x3e422ff8	0.18963611
7	0xbd04e3f6	-0.032443963
8	0xbca79798	-0.020458028
9	0xbe22c92d	-0.15897055
10	0xbb661a56	-0.0035110912
11	0xbbaeda5f	-0.0053360905
12	0xb8d1376d	-9.9762205e-05
13	0xbdf723d9	-0.12067384
14	0xbde2757d	-0.11057565
15	0xbd81e457	-0.063423805
16	0x3e32e668	0.17470706
17	0xbe26506a	-0.16241613
18	0xba2c1d80	-0.0006565675
19	0xbe579890	-0.21054292
20	0xbe344bf9	-0.17607106
21	0xbd607a05	-0.054803867
22	0xbbf21f89	-0.007389013
23	0xbc827dc4	-0.01592911
24	0xbd7a9037	-0.06117269
25	0xbc2c9087	-0.010532505
26	0xbcab062f	-0.020876972
27	0x38051aa0	3.1734467e-05
28	0xbcffa1bb	-0.031205049
29	0x3e88dc08	0.2673037
30	0xbdd5b3b4	-0.10434666
31	0xbdc3dd14	-0.09563652
32	0x3dcf8229	0.10132248
33	0xbbc1aadb	-0.00591026
34	0x3dba5d9b	0.09099885
35	0x3ec2a669	0.38017586
36	0xbcabbb1c	-0.020963244
37	0x3ee1b31b	0.4408196
38	0xbd8fc0c8	-0.07019192
39	0xbd836934	-0.0641655
40	0xbd575068	-0.052566916
41	0x3dd038a6	0.10167055
42	0xbd7b400c	-0.061340377
43	0x38b83a8b	8.784708e-05
44	0x3803d972	3.1435346e-05
45	0xbd455275	-0.04817434
46	0x3e7ead43	0.24870782
47	0x3f176048	0.5913129
48	0xbdaa4596	-0.08314054
49	0xbb041ddd	-0.0020159401
50	0xbdbd5e8d	-0.0924655
51	0xbbe3a05e	-0.0069466075
52	0xb8f0f62e	-0.00011489946
53	0x3de83f18	0.11340159
54	0xbd7005ff	-0.05859947
55	0xbd97e370	-0.07416427
56	0x38fb12de	0.00011972127
57	0xbb971768	-0.0046109445
58	0xbe1a3bd3	-0.15061884
59	0xbd0fa8b6	-0.035073005
60	0xbd24860e	-0.040166907
61	0xbe50da55	-0.20395787
62	0xbc59fc3e	-0.013304768
63	0xbde33918	-0.11094874
64	0x3dbc8da3	0.092067026
65	0x3ea38920	0.31940556
66	0xba794a63	-0.00095096807
67	0xbd78885a	-0.06067691
68	0x3e819b9d	0.25314036
69	0xbd68cfb9	-0.056838725
70	0xbd5b7af7	-0.053584065
71	0xbd062a27	-0.032755043
72	0xbe040794	-0.12893516
73	0x3e2d7216	0.16938052
74	0x3ce31927	0.027721955
75	0xbc476efd	-0.012172458
76	0x38fe4938	0.00012125302
77	0x3e079b22	0.13242772
78	0x3e3c7871	0.1840532
79	0xbd8340b3	-0.06408825
80	0xbda3b03b	-0.07992598
81	0xbe26a8d5	-0.16275342
82	0xbce97200	-0.028496742
83	0x3e368a69	0.17826237
84	0xbe17eb3d	-0.1483583
85	0xbdde6792	-0.10859598
86	0x3d89cb9b	0.06728288
87	0xbc9c1870	-0.019054621
88	0xbdd3902c	-0.10330233
89	0xbaf0605b	-0.0018339263
90	0xbe590def	-0.21196721
91	0x388fd8d3	6.859158e-05
92	0x3f381678	0.71909285
93	0xbdba6de3	-0.091029905
94	0x3ddce034	0.10784951
95	0x3e9bc717	0.3042533
96	0xbd05c177	-0.032655206
97	0xbc8b55dc	-0.017008714
98	0xbe810415	-0.25198427
99	0xbc2c1873	-0.010503876
100	0xbd2fd77c	-0.04293011
101	0xbd1b8e47	-0.037977483
102	0xbc0ebc41	-0.008711875
103	0x3d1ce1b2	0.038301177
104	0xbd642497	-0.055698957
105	0xbdd8cfd3	-0.10586514
106	0x3e882b1a	0.26595384
107	0xb8ae2fcc	-8.3058694e-05
108	0xb8abcb63	-8.191799e-05
109	0xbddd6a49	-0.10811288
110	0xbdb67ac9	-0.08910138
111	0xbe1e8fc4	-0.1548453
112	0x3ddf8b23	0.1091521
113	0xbb6b2962	-0.003588282
114	0xbe18e632	-0.14931563
115	0xbdd2909e	-0.1028149
116	0x37bb46e8	2.2325155e-05
117	0xbe529077	-0.20562921
118	0xbc18cdb1	-0.009326384
119	0xbd382af7	-0.04496285
120	0xb901509a	-0.00012332425
121	0xbdf743d3	-0.12073483
122	0xbe3230e2	-0.1740146
123	0xbd03f5bc	-0.032216772
124	0xbd0205fe	-0.031743996
125	0x3ceea3d6	0.029130857
126	0xbc213bd1	-0.0098409215
127	0xbbc298aa	-0.005938609
128	0x3e0f78c1	0.14010908
129	0x3e8328c3	0.25617036
130	0xba0e9b8b	-0.0005440048
131	0x3dcccee1	0.100003965
132	0xbca213a9	-0.019784765
133	0xbced360a	-0.028956432
134	0xbd95af8f	-0.07308876
135	0xbd2ebb27	-0.04265895
136	0xbe6f4868	-0.23367465
137	0xbe4df721	-0.20113803
138	0xba304b83	-0.00067251193
139	0x3c1c8169	0.009552338
140	0xb826a49b	-3.9730785e-05
141	0xbd85b466	-0.06528549
142	0xbdaafea9	-0.08349354
143	0xbcdaa73e	-0.026691075
144	0x3e9a8fcf	0.30187842
145	0xbda56c36	-0.0807728
146	0xbd795d89	-0.060880218
147	0xbe93c0d5	-0.28858057
148	0x3f1893d4	0.5960057
149	0x3d756f24	0.059920445
150	0xbce4910c	-0.027901195
151	0xbd03aec4	-0.03214909
152	0x3dd1c353	0.10242333
153	0xbc693876	-0.014234653
154	0xbe170c79	-0.14750852
155	0xb8aab94f	-8.140748e-05
156	0xbdf03b1a	-0.11730023
157	0xbdbc86d7	-0.09205406
158	0x3e9170d1	0.28406385
159	0x3e4668dc	0.19375938
160	0xbdc70108	-0.097169936
161	0xb786730b	-1.6027616e-05
162	0xbe46acbf	-0.19401835
163	0xbe0afc80	-0.13572884
164	0xbde77483	-0.1130152
165	0xbe3bbc77	-0.18333612
166	0xbdce3447	-0.10068565
167	0xbddd0afb	-0.1079311
168	0x3e3476c4	0.1762343
169	0xbd8a7ffd	-0.06762693
170	0xbcca56e9	-0.024699645
171	0x38642f24	5.440334e-05
172	0xb8d196ee	-9.9940095e-05
173	0x3da978f6	0.082750246
174	0x3e0fb343	0.14033227
175	0x3f1656f8	0.58726454
176	0xbe102d3c	-0.14079756
177	0x3ade68f8	0.0016968539
178	0xbe061764	-0.1309486
179	0xbd8997ab	-0.067183815
180	0x38b58ecc	8.6573506e-05
181	0xbe10d99e	-0.14145514
182	0x3d8841aa	0.066531494
183	0xbde7c318	-0.11316508
184	0x38eaf8b0	0.00011204311
185	0xbe3068c8	-0.17227471
186	0xbe0fa993	-0.14029531
187	0xbd0ef004	-0.034896865
188	0x3e0f1923	0.13974433
189	0x3ebab53e	0.36466402
190	0xbc4e928d	-0.012608183
191	0xbe26fb02	-0.1630669
192	0x3d623c53	0.05523331
193	0xbe4261c0	-0.18982601
194	0x3bc1ce43	0.005914481
195	0x3e5cc58f	0.21559738
196	0xbe161043	-0.14654641
197	0x3e749cf3	0.23887996
198	0xbdeadce1	-0.114679106
199	0x3d649f33	0.055815887
200	0xbe275402	-0.1634064
201	0x3ebf327a	0.37343198
202	0xbb81697c	-0.0039493423
203	0xbc3c49fb	-0.011492248
204	0xb88ea5ea	-6.8019915e-05
205	0xbc802793	-0.01564387
206	0xbe3df9f0	-0.18552375
207	0x3b5b3ee3	0.0033454231
208	0xbe0b066c	-0.13576669
209	0x3ba84d19	0.005136144
210	0xbda1218f	-0.07867729
211	0x3efb3369	0.4906266
212	0x3f03476f	0.51280874
213	0xbdcfb2ac	-0.10141501
214	0xbd37894f	-0.044808682
215	0xbd50db8b	-0.050990622
216	0xbe16d6d6	-0.14730391
217	0xbbcf5303	-0.0063270344
218	0x3e6fd249	0.23420061
219	0x3850ac88	4.9751747e-05
220	0xbe7b79c5	-0.2455817
221	0x3e77b1bd	0.24188896
222	0x3eda0132	0.42579037
223	0x3e8f211b	0.27954945
224	0xbd9824c4	-0.074288875
225	0x3b952535	0.0045515546
226	0x3e259e7d	0.1617374
227	0xbdaad233	-0.083408736
228	0x3cd3193b	0.025768867
229	0xbe089cd4	-0.13341075
230	0xbe1f8bd4	-0.15580684
231	0xbcbe151f	-0.02320343
232	0x3e682059	0.2266859
233	0xbd62456a	-0.05524198
234	0xbe2a9f3a	-0.16662303
235	0xb9094349	-0.00013090404
236	0xb89431a5	-7.066437e-05
237	0xbdd181d4	-0.10229841
238	0xbdc9a5c8	-0.098460734
239	0xbe95d3ff	-0.29263303
240	0xbe426d89	-0.18987097
241	0xbb69e78e	-0.0035690996
242	0xbcdaccd2	-0.026708994
243	0xbda72567	-0.08161431
244	0xb84fe190	-4.9562717e-05
245	0x3e0c3650	0.13692594
246	0xbd14b783	-0.036307823
247	0xbbde3c5c	-0.0067820977
248	0xb8bbd56b	-8.956607e-05
249	0xbe8c756b	-0.27433333
250	0xbe1b24f5	-0.15150817
251	0xbd741eb4	-0.059599593
252	0x3e131c9b	0.14366381
253	0xbe6adaf7	-0.22935091
254	0x3d31c5a6	0.043401383
255	0xbda04b18	-0.07826823

layer4.bias f4 [10]
0	0xbc132c8a	-0.008982787
1	0xbc8021e3	-0.015641158
2	0xbc9ece03	-0.019385343
3	0xbc2e5a57	-0.010641656
4	0xbca8661b	-0.0205565
5	0xbcb51a1d	-0.022107178
6	0xbca426c6	-0.02003802
7	0xbb974bfc	-0.0046172123
8	0x3dd84a1b	0.105610095
9	0x3c86d023	0.01645667
